lab-1/output/mlp_model.ckpt (torch, 11932 bytes, 6 tensors)

layer1.weight f4 [64, 12]
0	0x3ef302c0	0.47463036
1	0xbd9a1dd3	-0.0752522
2	0xbdc9608e	-0.098328695
3	0x3e849c8a	0.2590068
4	0xbe77bc08	-0.24192822
5	0xbeb56821	-0.35431007
6	0xbef0be40	-0.4702015
7	0xbe0aefb3	-0.13568
8	0x3e155dcd	0.14586563
9	0x3e27ae87	0.1637517
10	0x3da543b6	0.080695555
11	0x3d82c600	0.06385422
12	0x3e26cb5e	0.16288516
13	0xbea6d077	-0.3258092
14	0x3e48a748	0.19595063
15	0xbeb1235c	-0.3459729
16	0x3eb00195	0.34376207
17	0xbecb611b	-0.39722523
18	0x3d09b756	0.03362211
19	0xbe74a442	-0.23890784
20	0x3dce2c41	0.100670345
21	0xbebfda56	-0.37471265
22	0xbca56f39	-0.020194637
23	0xbee26c64	-0.4422332
24	0x3eab10b2	0.33411175
25	0x3ec99254	0.39369452
26	0xbe943f35	-0.28954473
27	0xbe45cff8	-0.19317615
28	0xbb2aaa60	-0.0026041493
29	0xbe8ecdcd	-0.2789139
30	0xbe5a78c2	-0.21335128
31	0xbee7a8f4	-0.45246089
32	0x3ee0833a	0.43850118
33	0x3edd18c2	0.4318295
34	0x3e1379ef	0.14401983
35	0xbc955bd6	-0.018232267
36	0xbe02ecb6	-0.1278561
37	0x3d2474f2	0.04015059
38	0xbe97171e	-0.29509825
39	0x3e438f8c	0.19097728
40	0xbde8c088	-0.113648474
41	0x3e4d05a5	0.20021684
42	0x3e57f388	0.21088994
43	0xbe8fa517	-0.2805564
44	0xbe9c795e	-0.30561346
45	0x3e982a3b	0.2971972
46	0xbe6fcf83	-0.23419003
47	0x3ece1cff	0.40256497
48	0xbd3c48c3	-0.04596783
49	0x3e4b8693	0.19875555
50	0xbe2282fa	-0.15870276
51	0xbe096d71	-0.13420655
52	0x3ef6ee5f	0.48228738
53	0x3f73fd89	0.9530874
54	0xbcc7fe38	-0.024413213
55	0x3ce51baa	0.027967293
56	0xbf2ffff6	-0.6874994
57	0x3f034419	0.51275784
58	0x3f30e98e	0.69106376
59	0x3e03c5d1	0.1286843
60	0x3e3f7f0b	0.18700807
61	0xbe17ba01	-0.14817049
62	0xbe3b7561	-0.18306495
63	0xbd513a05	-0.051080722
64	0x3ee87ec1	0.45409206
65	0xbef692ce	-0.48158878
66	0x3ebdbbf2	0.37057453
67	0xbe99a5f0	-0.30009413
68	0xbe512a20	-0.20426226
69	0x3f161d8e	0.58638847
70	0xbbae1171	-0.005312138
71	0x3ebc867b	0.3682135
72	0x3e57676a	0.21035543
73	0x3ea5e5a5	0.32401767
74	0xbe78d0e7	-0.2429844
75	0x3cac5179	0.021034943
76	0xbe05ef58	-0.13079584
77	0xbe80404a	-0.2504905
78	0xbea6ba1f	-0.32563874
79	0xbdabba6d	-0.08385167
80	0xbe324e36	-0.17412648
81	0xbf8b1e2e	-1.0868585
82	0xbe8e5046	-0.2779562
83	0x3e954933	0.2915741
84	0xbec6278a	-0.3870204
85	0xbec96911	-0.39337972
86	0xbdbf1c8b	-0.09331616
87	0x3d8f647d	0.070015885
88	0xbdc4270d	-0.09577761
89	0x3e464885	0.19363602
90	0x3ea3d1e2	0.31996065
91	0xbe706dbb	-0.23479359
92	0x3f077d9c	0.5292604
93	0xbd719dde	-0.058988445
94	0xbe94fe8e	-0.2910046
95	0xbf324d32	-0.6964904
96	0xbee0ee16	-0.43931645
97	0x3ea04e91	0.3130994
98	0xbc316f07	-0.010829694
99	0xbda51eb6	-0.08062498
100	0xbb8818c2	-0.004153342
101	0x3e90759c	0.2821473
102	0xbe28cebd	-0.16485114
103	0x3e365de6	0.17809257
104	0xbdce7c40	-0.100822926
105	0x3f33d189	0.702416
106	0x3d6bae85	0.05753948
107	0x3e9a3a2d	0.3012251
108	0xbf120704	-0.57041955
109	0xbebdef5a	-0.37096673
110	0xbdbf86d8	-0.09351891
111	0x3ed53159	0.41639212
112	0x3f2bfe50	0.67184925
113	0xbe85c5d8	-0.26127505
114	0xbd29e7fc	-0.041481003
115	0xbe257340	-0.16157246
116	0x3ea0ca5b	0.31404385
117	0xbf0326ab	-0.5123088
118	0x3c37a297	0.011208198
119	0xbea6ed36	-0.32602853
120	0x3f36e727	0.7144646
121	0xbd91c2f6	-0.07117264
122	0x3eaa6665	0.33281246
123	0x3de157b4	0.11003056
124	0xbe98f939	-0.29877642
125	0xbd85dfc9	-0.06536824
126	0xbe88caaa	-0.2671712
127	0x3daa6ec4	0.08321908
128	0x3d54091e	0.051766507
129	0xbe2780ea	-0.1635777
130	0xbd86bae5	-0.06578616
131	0x3d80c248	0.06287056
132	0x3ea98f43	0.33117113
133	0xbe6314ea	-0.22175947
134	0x3d332662	0.043737777
135	0x3efe72c2	0.49696928
136	0xbe0caf55	-0.13738759
137	0x3ea1c993	0.315991
138	0xbeaaebfc	-0.33383167
139	0x3e8e73e1	0.27822784
140	0x3e49862f	0.19680093
141	0xbae8ea23	-0.0017769973
142	0xbeac43ba	-0.3364542
143	0xbd899998	-0.06718749
144	0x3e6a170e	0.22860357
145	0x3f0ef099	0.5583587
146	0x3ccc713d	0.02495634
147	0xbed49623	-0.41520795
148	0xbee12890	-0.4397626
149	0xbf3a540d	-0.727845
150	0xbf0f6123	-0.56007594
151	0x3f01fe78	0.50778913
152	0x3d83d5eb	0.06437286
153	0x3ec50dc7	0.38487074
154	0x3e367ef3	0.17821865
155	0xbf14c6d3	-0.5811588
156	0x3da0d145	0.07852415
157	0x3e38bc83	0.18040662
158	0x3eb42bd6	0.35189694
159	0xbe8b9ee5	-0.27269664
160	0x3f0c6c70	0.5485296
161	0xbf0d2057	-0.5512747
162	0xbd9f4725	-0.077772416
163	0xbe2bc265	-0.16773374
164	0xbda59be4	-0.080863744
165	0x3f0c9af7	0.5492396
166	0xbe639c68	-0.22227633
167	0xbdd44d1f	-0.10366272
168	0x3de74d34	0.11294022
169	0xbe0c7cf6	-0.13719544
170	0xbf002f89	-0.5007253
171	0x3e79e773	0.24404697
172	0x3e2144f2	0.15748957
173	0x3b53a9ac	0.0032297177
174	0x3dd45458	0.1036765
175	0x3e7f4e20	0.24932146
176	0x3dfff8e3	0.12498643
177	0xbf673eb4	-0.9033005
178	0x3ea2446e	0.31692833
179	0x3f2bc789	0.6710134
180	0xbbc3f180	-0.005979717
181	0x3e9af7fa	0.30267316
182	0x3e434a5d	0.19071336
183	0x3eafe9cd	0.34358063
184	0xbefd8e44	-0.49522603
185	0x3e64e7a0	0.22353983
186	0xbef01b08	-0.46895623
187	0xbd8f6ffa	-0.0700378
188	0xbee6acba	-0.45053655
189	0xbf26fc60	-0.65228844
190	0xbf164716	-0.5870222
191	0x3ea53852	0.3226953
192	0x3f074ed0	0.52854633
193	0xbe870aff	-0.26375577
194	0xbe0e88a1	-0.13919307
195	0x3ea5a858	0.32355
196	0xbe6e7300	-0.23286057
197	0x3e13368c	0.14376277
198	0xbedbf58d	-0.42960778
199	0x3e2653bf	0.16242884
200	0x3da0c4de	0.078500494
201	0xbec305e3	-0.3809043
202	0xbe25e818	-0.16201818
203	0x3e3beb11	0.1835139
204	0xbf2b9118	-0.6701827
205	0x3e0e353b	0.13887493
206	0x3e5cada5	0.21550615
207	0x3ebb407e	0.3657264
208	0x3df456bf	0.11930608
209	0xbe55cfb7	-0.20880018
210	0x3e55f192	0.20892933
211	0x3e845f15	0.25853792
212	0x3e92b51f	0.2865381
213	0x3e5ac12e	0.21362755
214	0x3e213854	0.15744144
215	0x3efbf8f0	0.49213362
216	0x3e8783fe	0.2646789
217	0xbe4a6962	-0.19766763
218	0xbe802159	-0.25025442
219	0x3e805839	0.2506731
220	0x3e2c9e70	0.16857314
221	0x3e26d0aa	0.16290537
222	0x3ee0f9ff	0.43940732
223	0x3ee0530a	0.43813354
224	0x3e59491c	0.21219295
225	0xbec138ce	-0.3773865
226	0x3ed46882	0.41485983
227	0x3e1f731d	0.15571256
228	0x3e673810	0.2257998
229	0x3dfa2854	0.12214723
230	0xbe7224bb	-0.23646824
231	0xbeacee35	-0.33775488
232	0xbd02bfff	-0.031921383
233	0xbf091c1a	-0.53558505
234	0x3ef68fe2	0.4815665
235	0x3e167425	0.14692743
236	0xbe903387	-0.28164312
237	0x3e8a4bd6	0.27010983
238	0x3ddaaba5	0.1067727
239	0xbe6717ed	-0.2256772
240	0x3e943cc1	0.28952602
241	0x3d1be858	0.038063377
242	0x3d0d25a0	0.03445971
243	0x3e523b67	0.20530473
244	0xbebd6b16	-0.36995763
245	0x3d8e1b54	0.06938806
246	0x3efc1d39	0.49241045
247	0x3f3a0aed	0.7267292
248	0x3d9ea47b	0.07746216
249	0x3e8cf65a	0.275317
250	0xbd5ea08f	-0.05435234
251	0xbe9433aa	-0.28945667
252	0x3e124741	0.14284994
253	0x3e629ef6	0.22130951
254	0x3f0ac690	0.5420923
255	0xbce40058	-0.027832195

layer1.bias f4 [64]
0	0xbe3bcc0a	-0.18339553
1	0x3ca4f121	0.02013451
2	0x3d54d0b3	0.051956844
3	0x3e39bd08	0.18138516
4	0x3d6d2d6e	0.057904653
5	0x3dded400	0.108802795
6	0xbdbc367f	-0.09190082
7	0xbcf42d4c	-0.029806755
8	0x3e77f9d4	0.24216396
9	0x3e9556ec	0.2916788
10	0xbd867ae6	-0.0656641
11	0x3e2d0f51	0.16900374
12	0x3c3b54d3	0.011433798
13	0x3e041e4a	0.1290218
14	0xbec89c14	-0.39181578
15	0x3da4c018	0.080444515
16	0xbd1d3bdf	-0.038387176
17	0x3e8f1376	0.27944535
18	0xbec39f08	-0.3820727
19	0x3d684f5d	0.05671631
20	0x3e5e9185	0.21735199
21	0x3d560968	0.052255064
22	0x3cca1cef	0.024672
23	0xbe8a99a4	-0.27070343
24	0x3e66f797	0.22555386
25	0x3eaf9b32	0.34298092
26	0xbe94c478	-0.29056144
27	0x3dfc1308	0.123083174
28	0x3d5569de	0.052102916
29	0xbe2535dd	-0.16133828
30	0xbe235c98	-0.1595329
31	0x3ec61aea	0.3869241
32	0x3d9133e4	0.070899755
33	0xbd4b4521	-0.049626473
34	0x3e99dd25	0.30051532
35	0x3e8f542a	0.279939
36	0x3e873940	0.26410866
37	0x3eb3cf8f	0.35119292
38	0xbe1a1123	-0.150456
39	0xbde082c7	-0.10962444
40	0xbd7e81b7	-0.062135424
41	0x3d10becf	0.03533822
42	0x3ead6fff	0.3387451
43	0x3eb77812	0.35833794
44	0xbe070a20	-0.13187456
45	0xbeaeea03	-0.34162912
46	0xbd620fbd	-0.05519079
47	0xbea50d0f	-0.32236525
48	0xbe900bff	-0.28134152
49	0xbda68ec3	-0.081326984
50	0xbcf5af53	-0.029990828
51	0xbd86306f	-0.06552207
52	0x3dabc435	0.08387033
53	0x3dd88a15	0.10573212
54	0x3e5e8861	0.21731712
55	0x3e8f6be4	0.28012002
56	0xbe94132f	-0.28920886
57	0x3d405667	0.0469574
58	0x3ed10637	0.40825054
59	0xbe5800fa	-0.21094123
60	0x3daa1479	0.08304686
61	0x3e545ff2	0.20739725
62	0x3e18455e	0.14870211
63	0xbe2f3fe1	-0.17114212

layer2.weight f4 [21, 64]
0	0x3decafc4	0.11556962
1	0x3c5ad8f0	0.013357386
2	0x3d1cd22c	0.038286373
3	0x3de6b266	0.112644956
4	0xbe0e6b90	-0.1390822
5	0x3db8dc08	0.09026343
6	0xbb1cf980	-0.0023952425
7	0xbd0b84e8	-0.034062296
8	0xbe385e72	-0.18004778
9	0xbc807984	-0.015682943
10	0x3de228de	0.11042951
11	0x3d0b1443	0.03395487
12	0x3d27c718	0.040961355
13	0xbdb0da6c	-0.08635411
14	0xbe003235	-0.12519152
15	0xbde87458	-0.11350316
16	0xbd9008e0	-0.07032943
17	0xbda8768b	-0.08225735
18	0x3c997753	0.018733656
19	0xbde28f98	-0.110625446
20	0xbe0156f1	-0.12630822
21	0xbde12c52	-0.109947816
22	0xbd870b6c	-0.065939754
23	0xbd85a3ca	-0.06525381
24	0xbcb154d0	-0.021646887
25	0x3d638cbd	0.05555414
26	0xbe275ae3	-0.16343264
27	0xbdc124c4	-0.094308406
28	0x3cbb8968	0.022892669
29	0x3d116954	0.03550084
30	0xbe06f44d	-0.13179131
31	0x3d05905c	0.032608375
32	0xbc238e87	-0.009982712
33	0xbe3a84a1	-0.18214656
34	0xbdb85eed	-0.09002481
35	0x3d8c9326	0.06864004
36	0xbcb82388	-0.02247788
37	0xbe0a5450	-0.13508725
38	0x3d39e16c	0.045380995
39	0x3dadd9e0	0.08488822
40	0x3d3e937c	0.04652737
41	0x3bec5e40	0.007213384
42	0xbd206de4	-0.0391673
43	0x3d2d24fb	0.042271595
44	0xbdef4242	-0.116825595
45	0xbbb9fc40	-0.0056758225
46	0xbe087dc0	-0.1332922
47	0x3c9df4e8	0.01928182
48	0xbe009423	-0.1255651
49	0x3cd32440	0.025774121
50	0xbd04bdbb	-0.032407504
51	0x3d7929d0	0.06083089
52	0xbdfa89b8	-0.12233299
53	0xbe11a0f2	-0.14221552
54	0x3b67ac00	0.0035350323
55	0xbe0f1ad0	-0.13975072
56	0x3d358708	0.04431823
57	0xbd88c92d	-0.06678996
58	0x3c4e579d	0.012594131
59	0xbb527e80	-0.0032118857
60	0xbb8297a6	-0.003985363
61	0xbd090974	-0.03345628
62	0xbdd87710	-0.10569584
63	0xbdf48292	-0.11938967
64	0x3ebae78a	0.36504775
65	0xbd41220b	-0.047151607
66	0x3cd20dd9	0.025641369
67	0x3e5fa520	0.21840334
68	0xbe0c5157	-0.13702904
69	0x3e395e3d	0.18102355
70	0xbee01f85	-0.43774047
71	0xbd494aa8	-0.049143463
72	0x3e8d64d4	0.27615988
73	0xbd4914ec	-0.04909222
74	0x3e59e990	0.21280503
75	0x3e0e6f26	0.13909587
76	0x3ead3302	0.33827978
77	0x3e9888e2	0.29791933
78	0xbe372fe3	-0.17889361
79	0xbdc128f5	-0.0943164
80	0x3e1f483b	0.15554897
81	0x3ee88e91	0.4542127
82	0xbeacc9f3	-0.33747825
83	0x3ea48a61	0.32136825
84	0x3eb5fc43	0.35544023
85	0x3e881da5	0.26585117
86	0x3e0e51bb	0.13898365
87	0x3e27cb5a	0.16386166
88	0xbced87ff	-0.028995512
89	0x3b0ce2db	0.002149752
90	0x39aab924	0.00032562867
91	0x3bf6f8eb	0.0075369976
92	0xbde8366d	-0.11338506
93	0x3e82c94e	0.25544208
94	0x3ec80cf4	0.39072382
95	0x3e4a9210	0.19782281
96	0xbe59fe9e	-0.21288535
97	0x3ea74334	0.3266846
98	0xbcc3f023	-0.023918217
99	0x3d8825a3	0.06647804
100	0x3d91092c	0.070818275
101	0x3e1f476f	0.15554594
102	0xbdcc95cf	-0.09989511
103	0x3e9ab5b6	0.3021676
104	0x3e91ee06	0.2850191
105	0x3e62fa58	0.22165811
106	0x3e6709af	0.22562288
107	0xbb9ffb08	-0.00488222
108	0x3ec98848	0.39361787
109	0x3df0f3d0	0.117652535
110	0x3e87945e	0.26480383
111	0x3dbe1778	0.0928182
112	0x3e4e0188	0.20117772
113	0xbecc2d11	-0.39878133
114	0xbddbdf49	-0.10735948
115	0x3ed522ba	0.41628057
116	0x36a6276f	4.951776e-06
117	0xbc84cb98	-0.016210362
118	0xbe71b724	-0.23605019
119	0x3e915bbd	0.28390303
120	0x3ef67f70	0.48144102
121	0x3ef58daf	0.47959659
122	0xbe1c30bf	-0.1525297
123	0x3d7d6679	0.061865304
124	0x3e9940f5	0.2993237
125	0x3debef66	0.11520271
126	0x3cca6283	0.024705177
127	0x3e81d662	0.25358874
128	0x3ebcccc4	0.36874974
129	0x3d6fe79d	0.058570493
130	0x3d9182a1	0.071049936
131	0x3e199eb6	0.1500195
132	0xbe287438	-0.16450584
133	0x3e825c54	0.25461066
134	0xbea432ee	-0.32070106
135	0xbd6237a2	-0.055228837
136	0xbc167744	-0.009183709
137	0xbd9bf81f	-0.07615685
138	0x3f112f42	0.56712735
139	0x3eb8210c	0.35962713
140	0x3f275c7b	0.6537549
141	0x3e237c48	0.15965378
142	0x3e6d5752	0.23177841
143	0x3d8b3132	0.06796493
144	0x3ec28452	0.37991577
145	0x3dd1ef4d	0.10250721
146	0x3e472d70	0.19450927
147	0x3ec6eaaf	0.38850924
148	0x3ef4942d	0.477693
149	0xbd91b047	-0.071137
150	0x3e7655db	0.24056189
151	0x3eea8265	0.45802608
152	0x3d47693b	0.04868434
153	0xbebcb23f	-0.3685474
154	0x3eb443ff	0.35208127
155	0x3e4ee762	0.20205453
156	0xbe33f248	-0.17572892
157	0xbc417589	-0.011807808
158	0x3e689069	0.22711338
159	0xbd91ac76	-0.071129724
160	0xbe937ab3	-0.2880455
161	0xbd90024d	-0.07031689
162	0xbd723647	-0.059133794
163	0x3e05c49c	0.13063282
164	0x3d2c4004	0.042053238
165	0x3e9e75e6	0.30949324
166	0x3e57affb	0.21063225
167	0x3e2d99b2	0.16953161
168	0x3eba6858	0.36407733
169	0x3d939fd5	0.0720822
170	0x3f0056bd	0.5013235
171	0xbe504b49	-0.20341219
172	0x3e17b636	0.14815602
173	0x3d997a18	0.07493991
174	0x3d0ff32b	0.035144012
175	0x3ea93a9b	0.33052525
176	0x3ed94cd4	0.42441428
177	0xbee9024b	-0.45509562
178	0xbe075751	-0.13216902
179	0x3eb2ed81	0.34946826
180	0x3d29a67a	0.04141853
181	0x3e3c51a4	0.18390518
182	0xbde97cbb	-0.114007436
183	0x3e7af28a	0.24506584
184	0x3ee23a3b	0.4418505
185	0x3eb80084	0.35937893
186	0xbe927c8a	-0.2861064
187	0x3e789fe5	0.24279745
188	0xbe21192b	-0.15732257
189	0xbdab6978	-0.08369726
190	0x3d55b340	0.0521729
191	0xbd79fdc6	-0.061033033
192	0x3d8545c4	0.06507447
193	0x3e47e57e	0.19521138
194	0x3dbe368d	0.092877485
195	0xbd51cbe2	-0.05121983
196	0xbf166a57	-0.5875601
197	0x3ec3314c	0.38123548
198	0x3e28aec1	0.16472913
199	0x3ee6ae69	0.4505494
200	0xbdad2c0c	-0.08455667
201	0x3f28ee16	0.6598829
202	0xbe14c510	-0.14528298
203	0x3d8a24e3	0.06745317
204	0x3d0a388f	0.033745345
205	0x3da2c624	0.079479486
206	0x3f094776	0.53624666
207	0x3e150b82	0.14555171
208	0x3c88f237	0.01671706
209	0x3ed6fb77	0.41988727
210	0xbd0bb39a	-0.03410683
211	0x3e15f9fb	0.14646141
212	0x3dcb4a8c	0.09926328
213	0xbe0ffbaf	-0.14060853
214	0x3ef1817a	0.47169095
215	0xbc32cb6f	-0.01091276
216	0x3ead6a0f	0.3386998
217	0x3ef35c37	0.47531292
218	0x3d634c44	0.055492654
219	0x3e0fe320	0.14051485
220	0xbe8f3cde	-0.27976125
221	0x3d188210	0.037233412
222	0x3eb410c3	0.35169038
223	0x3eb53c65	0.3539764
224	0xbcedaf41	-0.029014232
225	0xbdd8405a	-0.10559149
226	0x3c97fff2	0.018554661
227	0xbd483ad7	-0.04888424
228	0xbeb4c503	-0.35306558
229	0xbd663ea8	-0.056212097
230	0x3e91d40f	0.284821
231	0xbdee2709	-0.11628539
232	0x3dc471e3	0.09592035
233	0x3d3d78c8	0.046257764
234	0xbbb3eaf7	-0.0054906565
235	0x3e579c29	0.21055664
236	0x3dd510b1	0.10403574
237	0xbd8e6c2b	-0.06954225
238	0xbc8ce766	-0.017200183
239	0x3e83f22d	0.25770703
240	0x3e30022a	0.17188326
241	0x3eb6eddd	0.3572835
242	0xbe6db6d8	-0.2321428
243	0x3eaf7afe	0.34273523
244	0xbbef606d	-0.007305196
245	0xbd66621d	-0.056245912
246	0xbe0c4887	-0.13699542
247	0x3e34a183	0.17639737
248	0x3e691c04	0.22764593
249	0x3f027878	0.5096507
250	0x3e4437ea	0.19161955
251	0xbe12d926	-0.14340648
252	0xbe1ac2c3	-0.15113358
253	0x3d90e1f6	0.07074349
254	0x3e7e7511	0.24849345
255	0xbe82da55	-0.255572

layer2.bias f4 [21]
0	0xbe2d8f8d	-0.16949292
1	0x3da50c13	0.080589436
2	0x3e24f9e6	0.16110954
3	0x3e6d3d25	0.23167856
4	0x3aefcbaa	0.001829495
5	0x3dfc1bf2	0.12310018
6	0x3e257771	0.16158845
7	0x3d9bd3f4	0.07608786
8	0x3cb423b8	0.021989688
9	0x3e471ba4	0.19444138
10	0xbd6cff0c	-0.05786042
11	0x3cbcb8fd	0.023037428
12	0x3d683e71	0.056700174
13	0x3df86af2	0.12129773
14	0x3d900753	0.07032647
15	0xbc49141f	-0.012272864
16	0xbe26943d	-0.16267486
17	0xbe37c3ba	-0.17945758
18	0xbd81d746	-0.06339888
19	0xbe077dec	-0.13231629
20	0xbd45f115	-0.048325617

layer3.weight f4 [6, 21]
0	0xbde3d67e	-0.111248955
1	0xbe17df69	-0.14831318
2	0x3e0ca1a8	0.13733542
3	0xbd918c7d	-0.07106874
4	0xbea0fc95	-0.31442705
5	0xbf3668c3	-0.71253604
6	0xbf268ccf	-0.65058607
7	0xbd6f534d	-0.05842905
8	0x3e9aca0a	0.3023227
9	0xbe96aafb	-0.29427323
10	0x3dfa652c	0.12226328
11	0x3eec3adb	0.46138653
12	0xbf0218dd	-0.5081919
13	0xbf5c9ba6	-0.86175
14	0xbf1f7f1b	-0.6230332
15	0x3eb76ab7	0.35823604
16	0x3e8458f9	0.2584913
17	0xbe251b43	-0.16123681
18	0x3e693364	0.2277351
19	0x3def0471	0.11670769
20	0xbda895f5	-0.08231727
21	0x3d67796a	0.056512274
22	0x3e2699bb	0.16269581
23	0x3e8624a1	0.2619982
24	0xbda88a7f	-0.08229541
25	0xbeaff541	-0.343668
26	0xbebcb7dd	-0.36859027
27	0x3ee0851e	0.4385156
28	0x3f03d6d8	0.514997
29	0xbf27676b	-0.6539218
30	0xbedb16ed	-0.42790928
31	0xbe8820b5	-0.26587453
32	0x3e6021ce	0.21887895
33	0xbeacd9f3	-0.33760032
34	0x3e542cb4	0.20720178
35	0xbe4f1b8c	-0.20225352
36	0x3ea777ff	0.32708737
37	0xbeb38aca	-0.35066825
38	0xbd873122	-0.06601168
39	0xbddebb92	-0.1087562
40	0xbe81af56	-0.25329083
41	0x3d6ebd0d	0.05828576
42	0xbc21f2bf	-0.009884535
43	0xbe9a32a7	-0.3011677
44	0xbe953664	-0.2914306
45	0xbf291618	-0.6604934
46	0x3e5c4ade	0.21512935
47	0x3ece8ac0	0.40340233
48	0x3e0485ba	0.12941638
49	0xbe958422	-0.29202372
50	0x3e389388	0.18025029
51	0xbdd44d59	-0.103663154
52	0xbe2f6868	-0.17129672
53	0xbf056a34	-0.5211518
54	0x3f52dd62	0.82369053
55	0xbe85a357	-0.2610118
56	0x3e0780e1	0.13232757
57	0xbecb29be	-0.39680284
58	0xbed541d8	-0.41651797
59	0xbdb66990	-0.08906853
60	0xbea04be7	-0.3130791
61	0x3e13077a	0.14358321
62	0x3c67ef36	0.014156153
63	0xbe554e67	-0.2083069
64	0xbca80fcf	-0.02051535
65	0xbf043cfc	-0.51655555
66	0xbee20db5	-0.44151083
67	0x3ec1edf1	0.37876847
68	0xbe293fa7	-0.16528188
69	0x3e9ad2b4	0.3023888
70	0x3e18f865	0.14938505
71	0x3dd16a31	0.102253325
72	0x3e0e41f8	0.13892353
73	0x3ecd9ebe	0.40160173
74	0xbf3a867b	-0.7286145
75	0xbee931fc	-0.45545948
76	0x3e87f3ee	0.2655329
77	0xbf005434	-0.50128484
78	0xbed07220	-0.4071207
79	0x3e15c65f	0.14626454
80	0xbe543d90	-0.20726609
81	0xbedd7dc5	-0.43260017
82	0xbd71450c	-0.05890374
83	0xbcf7b9ac	-0.030239902
84	0xbda362fd	-0.07977865
85	0xbf0a6f35	-0.5407594
86	0xbf4b914d	-0.79518586
87	0x3ef4b0e7	0.47791216
88	0xbe1ed096	-0.15509257
89	0xbe499133	-0.19684295
90	0xbeedfbcc	-0.46481168
91	0xbe9eb55d	-0.30997744
92	0x3dc0e08c	0.09417829
93	0x3f1ed80e	0.62048423
94	0xbf2cce88	-0.6750264
95	0xbe7c5afe	-0.24644086
96	0xbf0bf6ef	-0.54673666
97	0x3ea14ad8	0.31502414
98	0x3d867c51	0.0656668
99	0xbf2c326d	-0.67264444
100	0xbd67b518	-0.05656919
101	0x3dd35b82	0.10320188
102	0xbf0ade9a	-0.54245913
103	0x3dd6982d	0.10478244
104	0x3d976f26	0.07394247
105	0xbd2b8e96	-0.041884027
106	0x3eaafd35	0.33396307
107	0x3e25f5e8	0.16207087
108	0x3e8bba19	0.2729042
109	0x3e616a3b	0.2201318
110	0x3e7d691f	0.24747132
111	0xbef510a7	-0.47864267
112	0xbe8b5a28	-0.2721722
113	0x3d2355bd	0.03987669
114	0xbed099e5	-0.40742412
115	0x3e97ffb0	0.29687262
116	0xbeb5d8ae	-0.35516876
117	0xbe06cfeb	-0.13165252
118	0x3e69c6bf	0.22829722
119	0x3edb1ad3	0.42793903
120	0xbece3044	-0.402712
121	0xbe2d03b7	-0.16895948
122	0xbd6e6000	-0.05819702
123	0x3e4576d8	0.19283617
124	0xbe17d777	-0.14828287
125	0xb9870778	-0.0002575477

layer3.bias f4 [6]
0	0xbe8bb1ea	-0.27284175
1	0x3ce78ab5	0.028264383
2	0x3da76d93	0.081751965
3	0xbe236653	-0.15957002
4	0x3dd06a48	0.101765215
5	0x3c3eb8a0	0.011640698
